…
<TensorSliceDataset shapes: ((), ()), types: (tf.string, tf.int32)>
<ShuffleDataset shapes: ((), ()), types: (tf.string, tf.int32)>
<MapDataset shapes: ((None, None, 3), ()), types: (tf.float32, tf.int32)>
<MapDataset shapes: ((370, 497, 3), ()), types: (tf.float32, tf.int32)>
<BatchDataset shapes: ((None, 370, 497, 3), (None,)), types: (tf.float32, tf.int32)>
dataset_size
70
49
21
Model: "sequential_5"
_________________________________________________________________
Layer (type)                 Output Shape              Param #
=================================================================
conv2d_15 (Conv2D)           (None, 184, 248, 32)      896
_________________________________________________________________
max_pooling2d_10 (MaxPooling (None, 92, 124, 32)       0
_________________________________________________________________
conv2d_16 (Conv2D)           (None, 45, 61, 64)        18496
_________________________________________________________________
max_pooling2d_11 (MaxPooling (None, 22, 30, 64)        0
_________________________________________________________________
conv2d_17 (Conv2D)           (None, 10, 14, 64)        36928
=================================================================
Total params: 56,320
Trainable params: 56,320
Non-trainable params: 0
_________________________________________________________________
Model: "sequential_5"
_________________________________________________________________
Layer (type)                 Output Shape              Param #
=================================================================
conv2d_15 (Conv2D)           (None, 184, 248, 32)      896
_________________________________________________________________
max_pooling2d_10 (MaxPooling (None, 92, 124, 32)       0
_________________________________________________________________
conv2d_16 (Conv2D)           (None, 45, 61, 64)        18496
_________________________________________________________________
max_pooling2d_11 (MaxPooling (None, 22, 30, 64)        0
_________________________________________________________________
conv2d_17 (Conv2D)           (None, 10, 14, 64)        36928
_________________________________________________________________
flatten_5 (Flatten)          (None, 8960)              0
_________________________________________________________________
dense_10 (Dense)             (None, 64)                573504
_________________________________________________________________
dense_11 (Dense)             (None, 10)                650
=================================================================
Total params: 630,474
Trainable params: 630,474
Non-trainable params: 0
_________________________________________________________________
Epoch 1/30
49/49 [==============================] - 1s 26ms/step - loss: 2.3015 - accuracy: 0.1391 - val_loss: 2.2217 - val_accuracy: 0.3048
Epoch 2/30
49/49 [==============================] - 1s 23ms/step - loss: 2.1366 - accuracy: 0.2413 - val_loss: 2.0579 - val_accuracy: 0.2333
…
