…
<TensorSliceDataset shapes: ((), ()), types: (tf.string, tf.int32)>
<ShuffleDataset shapes: ((), ()), types: (tf.string, tf.int32)>
<MapDataset shapes: ((None, None, 3), ()), types: (tf.float32, tf.int32)>
<MapDataset shapes: ((370, 497, 3), ()), types: (tf.float32, tf.int32)>
<BatchDataset shapes: ((None, 370, 497, 3), (None,)), types: (tf.float32, tf.int32)>
dataset_size
175
123
52
Model: "sequential_3"
_________________________________________________________________
Layer (type)                 Output Shape              Param #
=================================================================
conv2d_9 (Conv2D)            (None, 184, 248, 32)      896
_________________________________________________________________
max_pooling2d_6 (MaxPooling2 (None, 92, 124, 32)       0
_________________________________________________________________
conv2d_10 (Conv2D)           (None, 45, 61, 64)        18496
_________________________________________________________________
max_pooling2d_7 (MaxPooling2 (None, 22, 30, 64)        0
_________________________________________________________________
conv2d_11 (Conv2D)           (None, 10, 14, 64)        36928
=================================================================
Total params: 56,320
Trainable params: 56,320
Non-trainable params: 0
_________________________________________________________________
Model: "sequential_3"
_________________________________________________________________
Layer (type)                 Output Shape              Param #
=================================================================
conv2d_9 (Conv2D)            (None, 184, 248, 32)      896
_________________________________________________________________
max_pooling2d_6 (MaxPooling2 (None, 92, 124, 32)       0
_________________________________________________________________
conv2d_10 (Conv2D)           (None, 45, 61, 64)        18496
_________________________________________________________________
max_pooling2d_7 (MaxPooling2 (None, 22, 30, 64)        0
_________________________________________________________________
conv2d_11 (Conv2D)           (None, 10, 14, 64)        36928
_________________________________________________________________
flatten_3 (Flatten)          (None, 8960)              0
_________________________________________________________________
dense_6 (Dense)              (None, 64)                573504
_________________________________________________________________
dense_7 (Dense)              (None, 10)                650
=================================================================
Total params: 630,474
Trainable params: 630,474
Non-trainable params: 0
_________________________________________________________________
Epoch 1/30
123/123 [==============================] - 1s 10ms/step - loss: 2.2709 - accuracy: 0.1405 - val_loss: 2.2154 - val_accuracy: 0.2067
Epoch 2/30
123/123 [==============================] - 1s 10ms/step - loss: 2.1285 - accuracy: 0.2363 - val_loss: 1.9829 - val_accuracy: 0.2500
…
