…
<TensorSliceDataset shapes: ((), ()), types: (tf.string, tf.int32)>
<ShuffleDataset shapes: ((), ()), types: (tf.string, tf.int32)>
<MapDataset shapes: ((None, None, 3), ()), types: (tf.float32, tf.int32)>
<MapDataset shapes: ((370, 497, 3), ()), types: (tf.float32, tf.int32)>
<BatchDataset shapes: ((None, 370, 497, 3), (None,)), types: (tf.float32, tf.int32)>
dataset_size
1
1
0
Model: "sequential_10"
_________________________________________________________________
Layer (type)                 Output Shape              Param #
=================================================================
conv2d_30 (Conv2D)           (None, 184, 248, 32)      896
_________________________________________________________________
max_pooling2d_20 (MaxPooling (None, 92, 124, 32)       0
_________________________________________________________________
conv2d_31 (Conv2D)           (None, 45, 61, 64)        18496
_________________________________________________________________
max_pooling2d_21 (MaxPooling (None, 22, 30, 64)        0
_________________________________________________________________
conv2d_32 (Conv2D)           (None, 10, 14, 64)        36928
=================================================================
Total params: 56,320
Trainable params: 56,320
Non-trainable params: 0
_________________________________________________________________
Model: "sequential_10"
_________________________________________________________________
Layer (type)                 Output Shape              Param #
=================================================================
conv2d_30 (Conv2D)           (None, 184, 248, 32)      896
_________________________________________________________________
max_pooling2d_20 (MaxPooling (None, 92, 124, 32)       0
_________________________________________________________________
conv2d_31 (Conv2D)           (None, 45, 61, 64)        18496
_________________________________________________________________
max_pooling2d_21 (MaxPooling (None, 22, 30, 64)        0
_________________________________________________________________
conv2d_32 (Conv2D)           (None, 10, 14, 64)        36928
_________________________________________________________________
flatten_10 (Flatten)         (None, 8960)              0
_________________________________________________________________
dense_20 (Dense)             (None, 64)                573504
_________________________________________________________________
dense_21 (Dense)             (None, 10)                650
=================================================================
Total params: 630,474
Trainable params: 630,474
Non-trainable params: 0
_________________________________________________________________
Epoch 1/30
2021-01-13 21:19:38.350793: E tensorflow/stream_executor/cuda/cuda_driver.cc:837] failed to alloc 4294967296 bytes on host: CUDA_ERROR_OUT_OF_MEMORY: out of memory
2021-01-13 21:19:38.350914: W .\tensorflow/core/common_runtime/gpu/gpu_host_allocator.h:44] could not allocate pinned host memory of size: 4294967296
…
