…
<TensorSliceDataset shapes: ((), ()), types: (tf.string, tf.int32)>
<ShuffleDataset shapes: ((), ()), types: (tf.string, tf.int32)>
<MapDataset shapes: ((None, None, 3), ()), types: (tf.float32, tf.int32)>
<MapDataset shapes: ((370, 497, 3), ()), types: (tf.float32, tf.int32)>
<BatchDataset shapes: ((None, 370, 497, 3), (None,)), types: (tf.float32, tf.int32)>
dataset_size
7
5
2
Model: "sequential_8"
_________________________________________________________________
Layer (type)                 Output Shape              Param #
=================================================================
conv2d_24 (Conv2D)           (None, 184, 248, 32)      896
_________________________________________________________________
max_pooling2d_16 (MaxPooling (None, 92, 124, 32)       0
_________________________________________________________________
conv2d_25 (Conv2D)           (None, 45, 61, 64)        18496
_________________________________________________________________
max_pooling2d_17 (MaxPooling (None, 22, 30, 64)        0
_________________________________________________________________
conv2d_26 (Conv2D)           (None, 10, 14, 64)        36928
=================================================================
Total params: 56,320
Trainable params: 56,320
Non-trainable params: 0
_________________________________________________________________
Model: "sequential_8"
_________________________________________________________________
Layer (type)                 Output Shape              Param #
=================================================================
conv2d_24 (Conv2D)           (None, 184, 248, 32)      896
_________________________________________________________________
max_pooling2d_16 (MaxPooling (None, 92, 124, 32)       0
_________________________________________________________________
conv2d_25 (Conv2D)           (None, 45, 61, 64)        18496
_________________________________________________________________
max_pooling2d_17 (MaxPooling (None, 22, 30, 64)        0
_________________________________________________________________
conv2d_26 (Conv2D)           (None, 10, 14, 64)        36928
_________________________________________________________________
flatten_8 (Flatten)          (None, 8960)              0
_________________________________________________________________
dense_16 (Dense)             (None, 64)                573504
_________________________________________________________________
dense_17 (Dense)             (None, 10)                650
=================================================================
Total params: 630,474
Trainable params: 630,474
Non-trainable params: 0
_________________________________________________________________
Epoch 1/30
5/5 [==============================] - 1s 253ms/step - loss: 2.3189 - accuracy: 0.1122 - val_loss: 2.2780 - val_accuracy: 0.1750
Epoch 2/30
5/5 [==============================] - 1s 212ms/step - loss: 2.2598 - accuracy: 0.1403 - val_loss: 2.1957 - val_accuracy: 0.1850
…
