…
<TensorSliceDataset shapes: ((), ()), types: (tf.string, tf.int32)>
<ShuffleDataset shapes: ((), ()), types: (tf.string, tf.int32)>
<MapDataset shapes: ((None, None, 3), ()), types: (tf.float32, tf.int32)>
<MapDataset shapes: ((370, 497, 3), ()), types: (tf.float32, tf.int32)>
<BatchDataset shapes: ((None, 370, 497, 3), (None,)), types: (tf.float32, tf.int32)>
dataset_size
140
98
42
Model: "sequential_4"
_________________________________________________________________
Layer (type)                 Output Shape              Param #
=================================================================
conv2d_12 (Conv2D)           (None, 184, 248, 32)      896
_________________________________________________________________
max_pooling2d_8 (MaxPooling2 (None, 92, 124, 32)       0
_________________________________________________________________
conv2d_13 (Conv2D)           (None, 45, 61, 64)        18496
_________________________________________________________________
max_pooling2d_9 (MaxPooling2 (None, 22, 30, 64)        0
_________________________________________________________________
conv2d_14 (Conv2D)           (None, 10, 14, 64)        36928
=================================================================
Total params: 56,320
Trainable params: 56,320
Non-trainable params: 0
_________________________________________________________________
Model: "sequential_4"
_________________________________________________________________
Layer (type)                 Output Shape              Param #
=================================================================
conv2d_12 (Conv2D)           (None, 184, 248, 32)      896
_________________________________________________________________
max_pooling2d_8 (MaxPooling2 (None, 92, 124, 32)       0
_________________________________________________________________
conv2d_13 (Conv2D)           (None, 45, 61, 64)        18496
_________________________________________________________________
max_pooling2d_9 (MaxPooling2 (None, 22, 30, 64)        0
_________________________________________________________________
conv2d_14 (Conv2D)           (None, 10, 14, 64)        36928
_________________________________________________________________
flatten_4 (Flatten)          (None, 8960)              0
_________________________________________________________________
dense_8 (Dense)              (None, 64)                573504
_________________________________________________________________
dense_9 (Dense)              (None, 10)                650
=================================================================
Total params: 630,474
Trainable params: 630,474
Non-trainable params: 0
_________________________________________________________________
Epoch 1/30
98/98 [==============================] - 1s 13ms/step - loss: 2.2773 - accuracy: 0.1391 - val_loss: 2.1956 - val_accuracy: 0.1429
Epoch 2/30
98/98 [==============================] - 1s 12ms/step - loss: 2.1444 - accuracy: 0.1902 - val_loss: 2.0593 - val_accuracy: 0.2714
…
