…
<TensorSliceDataset shapes: ((), ()), types: (tf.string, tf.int32)>
<ShuffleDataset shapes: ((), ()), types: (tf.string, tf.int32)>
<MapDataset shapes: ((None, None, 3), ()), types: (tf.float32, tf.int32)>
<MapDataset shapes: ((370, 497, 3), ()), types: (tf.float32, tf.int32)>
<BatchDataset shapes: ((None, 370, 497, 3), (None,)), types: (tf.float32, tf.int32)>
dataset_size
4
3
1
Model: "sequential_9"
_________________________________________________________________
Layer (type)                 Output Shape              Param #
=================================================================
conv2d_27 (Conv2D)           (None, 184, 248, 32)      896
_________________________________________________________________
max_pooling2d_18 (MaxPooling (None, 92, 124, 32)       0
_________________________________________________________________
conv2d_28 (Conv2D)           (None, 45, 61, 64)        18496
_________________________________________________________________
max_pooling2d_19 (MaxPooling (None, 22, 30, 64)        0
_________________________________________________________________
conv2d_29 (Conv2D)           (None, 10, 14, 64)        36928
=================================================================
Total params: 56,320
Trainable params: 56,320
Non-trainable params: 0
_________________________________________________________________
Model: "sequential_9"
_________________________________________________________________
Layer (type)                 Output Shape              Param #
=================================================================
conv2d_27 (Conv2D)           (None, 184, 248, 32)      896
_________________________________________________________________
max_pooling2d_18 (MaxPooling (None, 92, 124, 32)       0
_________________________________________________________________
conv2d_28 (Conv2D)           (None, 45, 61, 64)        18496
_________________________________________________________________
max_pooling2d_19 (MaxPooling (None, 22, 30, 64)        0
_________________________________________________________________
conv2d_29 (Conv2D)           (None, 10, 14, 64)        36928
_________________________________________________________________
flatten_9 (Flatten)          (None, 8960)              0
_________________________________________________________________
dense_18 (Dense)             (None, 64)                573504
_________________________________________________________________
dense_19 (Dense)             (None, 10)                650
=================================================================
Total params: 630,474
Trainable params: 630,474
Non-trainable params: 0
_________________________________________________________________
Epoch 1/30
3/3 [==============================] - 1s 268ms/step - loss: 2.3269 - accuracy: 0.1102 - val_loss: 2.2934 - val_accuracy: 0.0850
Epoch 2/30
3/3 [==============================] - 1s 300ms/step - loss: 2.2784 - accuracy: 0.1323 - val_loss: 2.2048 - val_accuracy: 0.2500
…
