…
<TensorSliceDataset shapes: ((), ()), types: (tf.string, tf.int32)>
<ShuffleDataset shapes: ((), ()), types: (tf.string, tf.int32)>
<MapDataset shapes: ((None, None, 3), ()), types: (tf.float32, tf.int32)>
<MapDataset shapes: ((370, 497, 3), ()), types: (tf.float32, tf.int32)>
<BatchDataset shapes: ((None, 370, 497, 3), (None,)), types: (tf.float32, tf.int32)>
dataset_size
350
245
105
Model: "sequential_1"
_________________________________________________________________
Layer (type)                 Output Shape              Param #
=================================================================
conv2d_3 (Conv2D)            (None, 184, 248, 32)      896
_________________________________________________________________
max_pooling2d_2 (MaxPooling2 (None, 92, 124, 32)       0
_________________________________________________________________
conv2d_4 (Conv2D)            (None, 45, 61, 64)        18496
_________________________________________________________________
max_pooling2d_3 (MaxPooling2 (None, 22, 30, 64)        0
_________________________________________________________________
conv2d_5 (Conv2D)            (None, 10, 14, 64)        36928
=================================================================
Total params: 56,320
Trainable params: 56,320
Non-trainable params: 0
_________________________________________________________________
Model: "sequential_1"
_________________________________________________________________
Layer (type)                 Output Shape              Param #
=================================================================
conv2d_3 (Conv2D)            (None, 184, 248, 32)      896
_________________________________________________________________
max_pooling2d_2 (MaxPooling2 (None, 92, 124, 32)       0
_________________________________________________________________
conv2d_4 (Conv2D)            (None, 45, 61, 64)        18496
_________________________________________________________________
max_pooling2d_3 (MaxPooling2 (None, 22, 30, 64)        0
_________________________________________________________________
conv2d_5 (Conv2D)            (None, 10, 14, 64)        36928
_________________________________________________________________
flatten_1 (Flatten)          (None, 8960)              0
_________________________________________________________________
dense_2 (Dense)              (None, 64)                573504
_________________________________________________________________
dense_3 (Dense)              (None, 10)                650
=================================================================
Total params: 630,474
Trainable params: 630,474
Non-trainable params: 0
_________________________________________________________________
Epoch 1/30
245/245 [==============================] - 1s 5ms/step - loss: 2.3126 - accuracy: 0.1104 - val_loss: 2.2024 - val_accuracy: 0.2095
Epoch 2/30
245/245 [==============================] - 1s 5ms/step - loss: 2.1947 - accuracy: 0.2025 - val_loss: 2.0495 - val_accuracy: 0.2286
…
