…
<TensorSliceDataset shapes: ((), ()), types: (tf.string, tf.int32)>
<ShuffleDataset shapes: ((), ()), types: (tf.string, tf.int32)>
<MapDataset shapes: ((None, None, 3), ()), types: (tf.float32, tf.int32)>
<MapDataset shapes: ((370, 497, 3), ()), types: (tf.float32, tf.int32)>
<BatchDataset shapes: ((None, 370, 497, 3), (None,)), types: (tf.float32, tf.int32)>
dataset_size
35
25
10
Model: "sequential_6"
_________________________________________________________________
Layer (type)                 Output Shape              Param #
=================================================================
conv2d_18 (Conv2D)           (None, 184, 248, 32)      896
_________________________________________________________________
max_pooling2d_12 (MaxPooling (None, 92, 124, 32)       0
_________________________________________________________________
conv2d_19 (Conv2D)           (None, 45, 61, 64)        18496
_________________________________________________________________
max_pooling2d_13 (MaxPooling (None, 22, 30, 64)        0
_________________________________________________________________
conv2d_20 (Conv2D)           (None, 10, 14, 64)        36928
=================================================================
Total params: 56,320
Trainable params: 56,320
Non-trainable params: 0
_________________________________________________________________
Model: "sequential_6"
_________________________________________________________________
Layer (type)                 Output Shape              Param #
=================================================================
conv2d_18 (Conv2D)           (None, 184, 248, 32)      896
_________________________________________________________________
max_pooling2d_12 (MaxPooling (None, 92, 124, 32)       0
_________________________________________________________________
conv2d_19 (Conv2D)           (None, 45, 61, 64)        18496
_________________________________________________________________
max_pooling2d_13 (MaxPooling (None, 22, 30, 64)        0
_________________________________________________________________
conv2d_20 (Conv2D)           (None, 10, 14, 64)        36928
_________________________________________________________________
flatten_6 (Flatten)          (None, 8960)              0
_________________________________________________________________
dense_12 (Dense)             (None, 64)                573504
_________________________________________________________________
dense_13 (Dense)             (None, 10)                650
=================================================================
Total params: 630,474
Trainable params: 630,474
Non-trainable params: 0
_________________________________________________________________
Epoch 1/30
25/25 [==============================] - 1s 51ms/step - loss: 2.2679 - accuracy: 0.1423 - val_loss: 2.1922 - val_accuracy: 0.2250
Epoch 2/30
25/25 [==============================] - 1s 47ms/step - loss: 2.0898 - accuracy: 0.2365 - val_loss: 2.0949 - val_accuracy: 0.2250
…
