…
<TensorSliceDataset shapes: ((), ()), types: (tf.string, tf.int32)>
<ShuffleDataset shapes: ((), ()), types: (tf.string, tf.int32)>
<MapDataset shapes: ((None, None, 3), ()), types: (tf.float32, tf.int32)>
<MapDataset shapes: ((370, 497, 3), ()), types: (tf.float32, tf.int32)>
<BatchDataset shapes: ((None, 370, 497, 3), (None,)), types: (tf.float32, tf.int32)>
dataset_size
14
10
4
Model: "sequential_7"
_________________________________________________________________
Layer (type)                 Output Shape              Param #
=================================================================
conv2d_21 (Conv2D)           (None, 184, 248, 32)      896
_________________________________________________________________
max_pooling2d_14 (MaxPooling (None, 92, 124, 32)       0
_________________________________________________________________
conv2d_22 (Conv2D)           (None, 45, 61, 64)        18496
_________________________________________________________________
max_pooling2d_15 (MaxPooling (None, 22, 30, 64)        0
_________________________________________________________________
conv2d_23 (Conv2D)           (None, 10, 14, 64)        36928
=================================================================
Total params: 56,320
Trainable params: 56,320
Non-trainable params: 0
_________________________________________________________________
Model: "sequential_7"
_________________________________________________________________
Layer (type)                 Output Shape              Param #
=================================================================
conv2d_21 (Conv2D)           (None, 184, 248, 32)      896
_________________________________________________________________
max_pooling2d_14 (MaxPooling (None, 92, 124, 32)       0
_________________________________________________________________
conv2d_22 (Conv2D)           (None, 45, 61, 64)        18496
_________________________________________________________________
max_pooling2d_15 (MaxPooling (None, 22, 30, 64)        0
_________________________________________________________________
conv2d_23 (Conv2D)           (None, 10, 14, 64)        36928
_________________________________________________________________
flatten_7 (Flatten)          (None, 8960)              0
_________________________________________________________________
dense_14 (Dense)             (None, 64)                573504
_________________________________________________________________
dense_15 (Dense)             (None, 10)                650
=================================================================
Total params: 630,474
Trainable params: 630,474
Non-trainable params: 0
_________________________________________________________________
Epoch 1/30
10/10 [==============================] - 1s 125ms/step - loss: 2.3020 - accuracy: 0.1142 - val_loss: 2.2155 - val_accuracy: 0.2150
Epoch 2/30
10/10 [==============================] - 1s 110ms/step - loss: 2.1543 - accuracy: 0.2044 - val_loss: 2.0535 - val_accuracy: 0.2000
…
