…
<TensorSliceDataset shapes: ((), ()), types: (tf.string, tf.int32)>
<ShuffleDataset shapes: ((), ()), types: (tf.string, tf.int32)>
<MapDataset shapes: ((None, None, 3), ()), types: (tf.float32, tf.int32)>
<MapDataset shapes: ((370, 497, 3), ()), types: (tf.float32, tf.int32)>
<BatchDataset shapes: ((None, 370, 497, 3), (None,)), types: (tf.float32, tf.int32)>
dataset_size
233
164
69
Model: "sequential_2"
_________________________________________________________________
Layer (type)                 Output Shape              Param #
=================================================================
conv2d_6 (Conv2D)            (None, 184, 248, 32)      896
_________________________________________________________________
max_pooling2d_4 (MaxPooling2 (None, 92, 124, 32)       0
_________________________________________________________________
conv2d_7 (Conv2D)            (None, 45, 61, 64)        18496
_________________________________________________________________
max_pooling2d_5 (MaxPooling2 (None, 22, 30, 64)        0
_________________________________________________________________
conv2d_8 (Conv2D)            (None, 10, 14, 64)        36928
=================================================================
Total params: 56,320
Trainable params: 56,320
Non-trainable params: 0
_________________________________________________________________
Model: "sequential_2"
_________________________________________________________________
Layer (type)                 Output Shape              Param #
=================================================================
conv2d_6 (Conv2D)            (None, 184, 248, 32)      896
_________________________________________________________________
max_pooling2d_4 (MaxPooling2 (None, 92, 124, 32)       0
_________________________________________________________________
conv2d_7 (Conv2D)            (None, 45, 61, 64)        18496
_________________________________________________________________
max_pooling2d_5 (MaxPooling2 (None, 22, 30, 64)        0
_________________________________________________________________
conv2d_8 (Conv2D)            (None, 10, 14, 64)        36928
_________________________________________________________________
flatten_2 (Flatten)          (None, 8960)              0
_________________________________________________________________
dense_4 (Dense)              (None, 64)                573504
_________________________________________________________________
dense_5 (Dense)              (None, 10)                650
=================================================================
Total params: 630,474
Trainable params: 630,474
Non-trainable params: 0
_________________________________________________________________
Epoch 1/30
164/164 [==============================] - 1s 7ms/step - loss: 2.2886 - accuracy: 0.1159 - val_loss: 2.3101 - val_accuracy: 0.1304
Epoch 2/30
164/164 [==============================] - 1s 7ms/step - loss: 2.2108 - accuracy: 0.1585 - val_loss: 2.1327 - val_accuracy: 0.1691
…
