…
<TensorSliceDataset shapes: ((), ()), types: (tf.string, tf.int32)>
<ShuffleDataset shapes: ((), ()), types: (tf.string, tf.int32)>
<MapDataset shapes: ((None, None, 3), ()), types: (tf.float32, tf.int32)>
<MapDataset shapes: ((370, 497, 3), ()), types: (tf.float32, tf.int32)>
<BatchDataset shapes: ((None, 370, 497, 3), (None,)), types: (tf.float32, tf.int32)>
dataset_size
699
490
209
Model: "sequential"
_________________________________________________________________
Layer (type)                 Output Shape              Param #   
=================================================================
conv2d (Conv2D)              (None, 184, 248, 32)      896       
_________________________________________________________________
max_pooling2d (MaxPooling2D) (None, 92, 124, 32)       0         
_________________________________________________________________
conv2d_1 (Conv2D)            (None, 45, 61, 64)        18496     
_________________________________________________________________
max_pooling2d_1 (MaxPooling2 (None, 22, 30, 64)        0         
_________________________________________________________________
conv2d_2 (Conv2D)            (None, 10, 14, 64)        36928     
=================================================================
Total params: 56,320
Trainable params: 56,320
Non-trainable params: 0
_________________________________________________________________
Model: "sequential"
_________________________________________________________________
Layer (type)                 Output Shape              Param #   
=================================================================
conv2d (Conv2D)              (None, 184, 248, 32)      896       
_________________________________________________________________
max_pooling2d (MaxPooling2D) (None, 92, 124, 32)       0         
_________________________________________________________________
conv2d_1 (Conv2D)            (None, 45, 61, 64)        18496     
_________________________________________________________________
max_pooling2d_1 (MaxPooling2 (None, 22, 30, 64)        0         
_________________________________________________________________
conv2d_2 (Conv2D)            (None, 10, 14, 64)        36928     
_________________________________________________________________
flatten (Flatten)            (None, 8960)              0         
_________________________________________________________________
dense (Dense)                (None, 64)                573504    
_________________________________________________________________
dense_1 (Dense)              (None, 10)                650       
=================================================================
Total params: 630,474
Trainable params: 630,474
Non-trainable params: 0
_________________________________________________________________
Epoch 1/30
  1/490 [..............................] - ETA: 0s - loss: 2.3935 - accuracy: 0.0000e+00
…
