…
<TensorSliceDataset shapes: ((), ()), types: (tf.string, tf.int32)>
<ShuffleDataset shapes: ((), ()), types: (tf.string, tf.int32)>
<MapDataset shapes: ((None, None, 3), ()), types: (tf.float32, tf.int32)>
<MapDataset shapes: ((370, 497, 3), ()), types: (tf.float32, tf.int32)>
<BatchDataset shapes: ((None, 370, 497, 3), (None,)), types: (tf.float32, tf.int32)>
Model: "sequential"
_________________________________________________________________
Layer (type)                 Output Shape              Param #   
=================================================================
conv2d (Conv2D)              (None, 368, 495, 32)      896       
_________________________________________________________________
max_pooling2d (MaxPooling2D) (None, 184, 247, 32)      0         
_________________________________________________________________
conv2d_1 (Conv2D)            (None, 182, 245, 64)      18496     
_________________________________________________________________
max_pooling2d_1 (MaxPooling2 (None, 91, 122, 64)       0         
_________________________________________________________________
conv2d_2 (Conv2D)            (None, 89, 120, 64)       36928     
=================================================================
Total params: 56,320
Trainable params: 56,320
Non-trainable params: 0
_________________________________________________________________
Model: "sequential"
_________________________________________________________________
Layer (type)                 Output Shape              Param #   
=================================================================
conv2d (Conv2D)              (None, 368, 495, 32)      896       
_________________________________________________________________
max_pooling2d (MaxPooling2D) (None, 184, 247, 32)      0         
_________________________________________________________________
conv2d_1 (Conv2D)            (None, 182, 245, 64)      18496     
_________________________________________________________________
max_pooling2d_1 (MaxPooling2 (None, 91, 122, 64)       0         
_________________________________________________________________
conv2d_2 (Conv2D)            (None, 89, 120, 64)       36928     
_________________________________________________________________
flatten (Flatten)            (None, 683520)            0         
_________________________________________________________________
dense (Dense)                (None, 64)                43745344  
_________________________________________________________________
dense_1 (Dense)              (None, 10)                650       
=================================================================
Total params: 43,802,314
Trainable params: 43,802,314
Non-trainable params: 0
_________________________________________________________________
Epoch 1/30
2020-11-19 17:00:52.690822: I tensorflow/stream_executor/platform/default/dso_loader.cc:48] Successfully opened dynamic library cublas64_10.dll
2020-11-19 17:00:52.959358: I tensorflow/stream_executor/platform/default/dso_loader.cc:48] Successfully opened dynamic library cudnn64_7.dll
…
